ssd_mobilenet_v3_in-uint8_out-uint8_tensor_ptq.tflite (tflite, 893664 bytes, 88 tensors)

model/model_19/sequential/conv2d/Conv2D i1 [12, 1, 1, 240] scale=0.0022589772 zero_point=0
-0.1874951 -0.033884656 0.1784592 0.09487704 -0.20104897 0.07680523 0.18071817 0.0
0.1287617 -0.042920567 -0.06776931 -0.07002829 0.04743852 0.011294886 -0.16490534 0.1581284
-0.024848748 -0.01581284 0.009035909 -0.09939499 0.038402613 -0.01581284 -0.05647443 -0.09261806
0.036143634 0.088100106 -0.088100106 -0.085841134 0.04743852 0.0022589772 -0.0067769317 -0.16264635
0.022589771 -0.0045179543 0.14231557 0.19427204 0.0045179543 -0.024848748 0.13779761 -0.060992382
-0.19878998 -0.009035909 0.011294886 -0.14457454 0.13102068 0.01581284 0.11294886 0.07002829
-0.17394124 -0.07002829 0.10843091 -0.011294886 0.058733407 0.07680523 -0.2371926 -0.088100106
-0.0022589772 -0.01581284 -0.013553863 -0.0790642 -0.06551034 0.049697496 -0.022589771 0.07002829
0.04066159 0.04066159 -0.024848748 -0.058733407 0.01581284 -0.03162568 0.083582155 0.013553863
0.04743852 0.09261806 -0.18523613 0.090359084 0.013553863 0.06325136 -0.051956475 -0.16942328
0.12650272 -0.22589771 -0.060992382 -0.07454625 -0.036143634 0.1287617 0.119725786 -0.011294886
-0.13779761 -0.045179542 0.07454625 -0.051956475 0.10391295 0.05647443 -0.04066159 0.060992382
-0.045179542 0.0 0.06551034 -0.0022589772 -0.018071817 -0.04066159 -0.0067769317 0.14231557
-0.05647443 -0.13553862 0.0067769317 0.14683351 0.038402613 -0.060992382 0.08132318 -0.119725786
-0.05647443 -0.13553862 0.042920567 0.19201306 -0.051956475 0.033884656 -0.083582155 -0.038402613
-0.11068988 -0.1287617 -0.15586942 0.117466815 -0.083582155 -0.09713602 0.011294886 -0.06325136
0.022589771 0.08132318 -0.04066159 0.04743852 0.06325136 0.12650272 -0.21912079 0.027107727
0.058733407 -0.09939499 0.07680523 0.06776931 -0.10843091 0.036143634 -0.121984765 0.13102068
0.027107727 -0.14231557 0.051956475 -0.07454625 -0.1287617 -0.13327965 -0.0067769317 -0.033884656
0.09261806 0.01581284 -0.13102068 -0.090359084 -0.024848748 -0.018071817 -0.13327965 0.088100106
0.11068988 -0.083582155 -0.06776931 0.10165397 0.12424374 0.036143634 -0.051956475 0.011294886
-0.042920567 -0.03162568 -0.0045179543 0.16264635 -0.013553863 -0.013553863 -0.115207836 -0.19653101
-0.013553863 0.013553863 0.049697496 0.15135147 -0.16942328 -0.022589771 0.09261806 0.14231557
0.15135147 0.07002829 -0.13327965 -0.115207836 0.117466815 0.14683351 0.033884656 0.0067769317
-0.083582155 -0.09261806 0.0 -0.01581284 0.083582155 0.17620021 0.05647443 -0.0067769317
-0.10843091 0.042920567 0.04743852 -0.085841134 -0.085841134 0.0022589772 0.029366704 -0.117466815
0.18523613 -0.14005658 -0.020330794 -0.042920567 0.027107727 0.029366704 0.009035909 -0.17168227
-0.0790642 0.09261806 -0.08132318 0.11068988 -0.14683351 0.013553863 0.23493363 -0.038402613
0.038402613 0.03162568 0.12424374 -0.0067769317 -0.25074646 0.1287617 0.06325136 -0.16716431
0.018071817 -0.090359084 -0.18523613 -0.036143634 -0.23493363 0.0045179543 0.060992382 -0.07680523
-0.08132318 -0.049697496 -0.0067769317 -0.119725786 -0.013553863 0.0067769317 0.022589771 -0.07228727
-0.10165397 -0.090359084 0.05647443 0.0790642 0.018071817 0.029366704 0.0022589772 -0.2868901
00000000: adf1 4f2a a722 5000 39ed e2e1 1505 b746
00000010: f5f9 04d4 11f9 e7d7 1027 d9da 1501 fdb8
00000020: 0afe 3f56 02f5 3de5 a8fc 05c0 3a07 321f
00000030: b3e1 30fb 1a22 97d9 fff9 fadd e316 f61f
00000040: 1212 f5e6 07f2 2506 1529 ae28 061c e9b5
00000050: 389c e5df f039 35fb c3ec 21e9 2e19 ee1b
00000060: ec00 1dff f8ee fd3f e7c4 0341 11e5 24cb
00000070: e7c4 1355 e90f dbef cfc7 bb34 dbd5 05e4
00000080: 0a24 ee15 1c38 9f0c 1ad4 221e d010 ca3a
00000090: 0cc1 17df c7c5 fdf1 2907 c6d8 f5f8 c527
000000a0: 31db e22d 3710 e905 edf2 fe48 fafa cda9
000000b0: fa06 1643 b5f6 293f 431f c5cd 3441 0f03
000000c0: dbd7 00f9 254e 19fd d013 15da da01 0dcc
000000d0: 52c2 f7ed 0c0d 04b4 dd29 dc31 bf06 68ef
000000e0: 110e 37fd 9139 1cb6 08d8 aef0 9802 1bde
000000f0: dcea fdcb fa03 0ae0 d3d8 1923 080d 0181

model/model_19/sequential/re_lu_32/Relu6;model/model_19/sequential/batch_normalization/FusedBatchNormV3;model/model_19/sequential/depthwise_conv2d/depthwise i1 [1, 3, 3, 240] scale=0.0046631913 zero_point=0
-0.03730553 0.051295105 -0.13523255 0.14455894 -0.33574978 0.10259021 0.16321169 -0.12124297
0.10259021 -0.060621485 0.009326383 0.03264234 0.023315957 -0.10259021 0.055958293 -0.5549198
-0.06528468 -0.1072534 -0.009326383 0.0046631913 -0.083937444 0.11191659 -0.12590617 -0.1538853
-0.018652765 -0.23315956 -0.09326383 -0.051295105 -0.023315957 0.07461106 -0.0046631913 0.25181234
-0.11657978 0.14922212 0.09792702 -0.2098436 0.009326383 -0.1072534 -0.13989574 -0.018652765
-0.018652765 -0.013989573 0.12590617 0.07927425 0.13523255 -0.07927425 0.10259021 -0.12124297
0.083937444 -0.03264234 -0.13056935 0.0046631913 -0.03264234 -0.055958293 -0.14922212 0.041968722
-0.13523255 -0.088600636 0.17253807 -0.12590617 0.07461106 -0.009326383 0.018652765 0.17253807
-0.013989573 -0.018652765 0.11191659 0.11657978 0.0046631913 -0.06528468 0.06528468 0.17720127
0.07461106 -0.32642338 -0.07927425 0.009326383 -0.03730553 -0.11657978 0.11191659 -0.11191659
-0.20518042 0.13989574 0.1585485 -0.013989573 -0.088600636 -0.023315957 0.24714914 0.07927425
-0.2658019 0.07927425 0.023315957 0.055958293 0.4243504 0.13056935 0.055958293 0.1538853
-0.1585485 -0.07927425 -0.027979147 -0.17720127 0.13056935 -0.018652765 -0.17253807 -0.12124297
0.023315957 -0.06994787 0.027979147 0.07461106 -0.088600636 -0.13056935 -0.09792702 0.1585485
0.1072534 0.12124297 0.06528468 0.023315957 -0.07927425 -0.013989573 -0.03264234 -0.07927425
-0.03730553 -0.17253807 0.1072534 0.041968722 0.06994787 0.0 0.06994787 0.07927425
0.013989573 -0.16321169 0.088600636 0.046631914 -0.07927425 0.018652765 0.0 0.03264234
0.34973934 -0.023315957 -0.13523255 0.0046631913 0.023315957 0.13523255 -0.083937444 -0.10259021
-0.07927425 0.0 -0.24714914 0.07927425 0.055958293 -0.07461106 0.06528468 -0.16787489
-0.013989573 0.06528468 -0.11657978 0.0 0.060621485 0.051295105 0.06994787 0.03730553
0.046631914 0.083937444 0.0046631913 0.041968722 -0.16787489 -0.17253807 0.11191659 0.06994787
-0.055958293 -0.06994787 0.051295105 0.013989573 -0.023315957 -0.2611387 -0.17253807 -0.29378104
-0.11191659 -0.018652765 -0.03264234 0.09326383 -0.11657978 -0.06994787 0.023315957 -0.2145068
0.0 0.018652765 -0.11657978 -0.07461106 0.046631914 -0.0046631913 -0.2098436 -0.03264234
0.0046631913 -0.055958293 0.24248594 0.03264234 -0.13523255 -0.046631914 -0.14922212 -0.27512828
0.055958293 -0.013989573 -0.19585404 0.03264234 0.027979147 0.088600636 -0.18652765 0.041968722
0.12124297 -0.041968722 0.03730553 -0.009326383 0.10259021 0.03264234 -0.35440254 -0.009326383
0.12590617 -0.023315957 -0.0046631913 -0.046631914 -0.06528468 0.12590617 -0.051295105 0.21916999
0.06528468 0.14455894 0.060621485 0.09326383 0.03264234 0.027979147 0.10259021 0.06994787
-0.046631914 -0.083937444 0.13523255 0.03730553 0.0046631913 0.21916999 0.18652765 0.09326383
-0.041968722 -0.0046631913 0.060621485 0.018652765 -0.06528468 -0.03264234 0.046631914 0.17720127
-0.09326383 -0.088600636 -0.027979147 -0.083937444 -0.1072534 -0.0046631913 0.046631914 -0.16787489
00000000: f80b e31f b816 23e6 16f3 0207 05ea 0c89
00000010: f2e9 fe01 ee18 e5df fcce ecf5 fb10 ff36
00000020: e720 15d3 02e9 e2fc fcfd 1b11 1def 16e6
00000030: 12f9 e401 f9f4 e009 e3ed 25e5 10fe 0425
00000040: fdfc 1819 01f2 0e26 10ba ef02 f8e7 18e8
00000050: d41e 22fd edfb 3511 c711 050c 5b1c 0c21
00000060: deef fada 1cfc dbe6 05f1 0610 ede4 eb22
00000070: 171a 0e05 effd f9ef f8db 1709 0f00 0f11
00000080: 03dd 130a ef04 0007 4bfb e301 051d eeea
00000090: ef00 cb11 0cf0 0edc fd0e e700 0d0b 0f08
000000a0: 0a12 0109 dcdb 180f f4f1 0b03 fbc8 dbc1
000000b0: e8fc f914 e7f1 05d2 0004 e7f0 0aff d3f9
000000c0: 01f4 3407 e3f6 e0c5 0cfd d607 0613 d809
000000d0: 1af7 08fe 1607 b4fe 1bfb fff6 f21b f52f
000000e0: 0e1f 0d14 0706 160f f6ee 1d08 012f 2814
000000f0: f7ff 0d04 f2f9 0a26 eced faee e9ff 0adc

model/model_19/sequential_5/conv2d_5/Conv2D i1 [24, 1, 1, 128] scale=0.0027439941 zero_point=0
0.09055181 -0.03292793 0.03292793 -0.057623878 0.0054879882 0.1371997 0.11250376 -0.13171172
-0.12073574 -0.019207958 -0.1426877 -0.07957583 -0.01371997 0.16738364 -0.12896772 0.030183936
0.019207958 -0.096039794 0.1371997 0.07134385 0.063111864 0.06859985 -0.12347974 0.035671923
0.0054879882 0.23598349 -0.043903906 -0.13445571 -0.096039794 0.18110362 0.0 -0.24421547
0.01371997 0.02743994 -0.16463965 0.10427178 0.14817569 0.115247756 -0.041159913 -0.10975976
-0.016463965 0.030183936 -0.11250376 0.10427178 0.030183936 -0.17287163 0.1371997 0.07134385
-0.041159913 -0.16463965 0.11250376 -0.08780781 -0.1426877 -0.12347974 -0.049391896 0.14543168
0.08780781 -0.05213589 -0.05487988 0.15366367 -0.05487988 -0.20579956 -0.14817569 0.12347974
-0.07957583 0.021951953 0.07683183 0.07957583 -0.12347974 0.030183936 0.08780781 0.0054879882
-0.17835961 0.12347974 0.024695948 -0.13171172 -0.06859985 0.16463965 0.1426877 -0.21951953
-0.02743994 0.07408784 -0.10427178 0.05487988 -0.1399437 -0.12622373 -0.030183936 -0.035671923
0.10975976 -0.035671923 -0.12073574 0.008231983 -0.12347974 -0.030183936 0.0 0.057623878
-0.06585586 -0.057623878 -0.17012763 -0.16738364 -0.10152778 0.02743994 0.0466479 0.09878379
0.15366367 0.05487988 -0.10975976 -0.14543168 -0.024695948 0.21128754 0.19207959 0.1399437
-0.0109759765 0.05487988 -0.05487988 0.07683183 0.15366367 -0.15915166 -0.063111864 -0.06585586
0.06859985 0.13445571 -0.15915166 -0.016463965 -0.07408784 -0.1371997 0.15091968 0.117991745
-0.10701577 0.13445571 0.09878379 -0.0027439941 0.085063815 -0.063111864 -0.115247756 0.05487988
0.21128754 0.117991745 -0.1399437 -0.15915166 -0.13171172 0.17012763 -0.03292793 0.05213589
-0.06036787 -0.10427178 0.0054879882 -0.0466479 -0.1865916 0.06859985 0.12073574 -0.030183936
0.024695948 0.057623878 -0.016463965 -0.13445571 0.049391896 0.043903906 0.22775151 -0.038415916
0.024695948 0.15366367 0.0932958 0.038415916 0.049391896 -0.0027439941 -0.008231983 -0.038415916
-0.13445571 -0.13171172 0.06036787 -0.06859985 -0.082319826 0.09055181 0.008231983 -0.11250376
-0.07134385 -0.12347974 0.0054879882 -0.07957583 -0.024695948 -0.041159913 -0.02743994 -0.12622373
-0.096039794 -0.07957583 -0.12073574 0.19482358 0.041159913 -0.10427178 0.16189565 0.07957583
0.07957583 -0.20305556 0.041159913 -0.10427178 0.082319826 0.11250376 0.09055181 0.06859985
0.16189565 0.05213589 0.019207958 -0.057623878 -0.26067945 -0.05487988 0.12347974 0.17835961
0.049391896 -0.16463965 0.082319826 0.10701577 -0.05213589 0.115247756 -0.085063815 -0.13445571
0.20031157 0.15366367 0.1399437 0.0109759765 0.021951953 -0.0466479 0.1371997 0.082319826
0.041159913 0.01371997 -0.07134385 0.085063815 -0.082319826 -0.06859985 -0.041159913 -0.01371997
0.15091968 -0.0466479 0.008231983 0.057623878 0.035671923 -0.085063815 -0.10975976 -0.115247756
0.0 -0.06585586 -0.10152778 0.1893356 -0.19482358 -0.0466479 -0.1893356 0.07957583
0.21403155 -0.06585586 -0.11250376 -0.117991745 0.10152778 0.082319826 -0.041159913 -0.1426877
00000000: 21f4 0ceb 0232 29d0 d4f9 cce3 fb3d d10b
00000010: 07dd 321a 1719 d30d 0256 f0cf dd42 00a7
00000020: 050a c426 362a f1d8 fa0b d726 0bc1 321a
00000030: f1c4 29e0 ccd3 ee35 20ed ec38 ecb5 ca2d
00000040: e308 1c1d d30b 2002 bf2d 09d0 e73c 34b0
00000050: f61b da14 cdd2 f5f3 28f3 d403 d3f5 0015
00000060: e8eb c2c3 db0a 1124 3814 d8cb f74d 4633
00000070: fc14 ec1c 38c6 e9e8 1931 c6fa e5ce 372b
00000080: d931 24ff 1fe9 d614 4d2b cdc6 d03e f413
00000090: eada 02ef bc19 2cf5 0915 facf 1210 53f2
000000a0: 0938 220e 12ff fdf2 cfd0 16e7 e221 03d7
000000b0: e6d3 02e3 f7f1 f6d2 dde3 d447 0fda 3b1d
000000c0: 1db6 0fda 1e29 2119 3b13 07eb a1ec 2d41
000000d0: 12c4 1e27 ed2a e1cf 4938 3304 08ef 321e
000000e0: 0f05 e61f e2e7 f1fb 37ef 0315 0de1 d8d6
000000f0: 00e8 db45 b9ef bb1d 4ee8 d7d5 251e f1cc

model/model_19/sequential_5/batch_normalization_5/FusedBatchNormV3;model/model_19/sequential_5/depthwise_conv2d_5/depthwise i1 [1, 3, 3, 128] scale=0.017860848 zero_point=0
0.3750778 -1.1252334 0.30363443 2.0718584 -1.3752854 -1.2502594 1.5717547 1.1252334
-1.7503631 0.39293867 0.23219103 -0.78587735 -0.46438205 1.6967806 -0.7144339 -0.26791272
1.7503631 -1.0716509 -1.3931462 -1.9646933 -0.57154715 -1.6967806 -1.7325023 0.2500519
-1.9646933 0.821599 -0.33935612 -0.8573207 1.1252334 1.6967806 -1.303842 -1.8575282
2.0897193 0.23219103 -0.19646934 0.8394599 -1.6610589 -0.21433018 0.4822429 -0.12502594
0.035721697 -0.821599 1.4645896 -0.053582545 -0.5001038 0.78587735 0.35721695 -0.8394599
-1.9825542 1.1966769 0.8573207 0.7322948 -0.53582543 -1.4288678 0.16074763 -0.32149526
1.3217028 0.46438205 -0.7144339 2.0718584 1.9111108 -1.285981 0.6608514 0.6965731
-0.589408 0.98234665 0.821599 -0.4107995 1.1430943 -1.4467287 1.178816 -1.5538938
2.1433017 -0.44652122 1.9111108 1.6253372 -0.26791272 -1.2681203 -0.5536863 -1.4467287
2.1433017 1.4824504 -1.3752854 1.4288678 -0.7322948 1.643198 0.32149526 -1.2145377
1.2323985 0.5179646 -0.17860848 1.1966769 -1.303842 0.9644858 -1.8039457 2.018276
-0.76801646 1.303842 0.10716509 -1.1252334 -0.46438205 1.4288678 1.4288678 -1.0537901
-1.5896155 2.1075802 1.4824504 0.76801646 -0.5179646 1.7325023 -0.10716509 -0.76801646
-1.0716509 -1.643198 -1.178816 -1.5717547 -0.053582545 -0.60726887 2.1790235 1.303842
0.8037382 -0.6965731 -0.5536863 -2.0897193 1.2145377 0.071443394 -0.9287641 0.8037382
0.4107995 2.0539975 -0.33935612 1.2681203 -1.5181721 -1.768224 -0.60726887 1.6610589
-1.0002075 1.411007 -0.12502594 -1.285981 1.3931462 -1.7146415 1.303842 0.6429905
-0.6429905 2.125441 -1.1609552 1.3752854 -1.2145377 0.98234665 -1.643198 -0.5001038
1.4645896 0.946625 -0.87518156 0.589408 0.12502594 -0.5179646 -0.6965731 1.89325
0.76801646 1.0537901 1.3752854 -0.42866036 0.6608514 0.08930424 0.5179646 -1.285981
-1.4645896 0.30363443 -0.9644858 1.9111108 -1.5896155 -1.3574245 -0.8573207 0.6429905
0.23219103 0.33935612 -1.8218066 -1.411007 -0.46438205 1.303842 1.5360329 -0.3750778
1.285981 0.3750778 -0.6608514 -1.7860849 0.7144339 -1.6253372 -1.768224 0.7144339
-1.1073726 -0.3750778 -1.3217028 -1.3217028 2.1790235 -0.67871225 -1.4645896 0.42866036
0.89304245 -1.2681203 1.8218066 2.018276 0.32149526 0.8573207 1.411007 -0.42866036
-0.6965731 -0.30363443 0.2500519 -1.0716509 -0.14288679 -0.2500519 -1.7860849 -1.9468325
-1.6967806 0.0 0.4822429 0.035721697 0.53582543 1.9468325 -0.26791272 -0.6429905
-0.10716509 -1.4824504 -1.1430943 0.821599 2.2683277 -0.17860848 -1.3574245 2.0897193
-0.5536863 1.0716509 1.1073726 -0.6429905 -0.67871225 1.1073726 -1.3931462 0.9109033
0.589408 0.21433018 1.5896155 -2.1968844 1.178816 0.9287641 -0.23219103 -0.6965731
1.2323985 -0.7501556 0.7322948 -0.67871225 1.3574245 1.8218066 0.7501556 0.946625
00000000: 15c1 1174 b3ba 583f 9e16 0dd4 e65f d8f1
00000010: 62c4 b292 e0a1 9f0e 922e edd0 3f5f b798
00000020: 750d f52f a3f4 1bf9 02d2 52fd e42c 14d1
00000030: 9143 3029 e2b0 09ee 4a1a d874 6bb8 2527
00000040: df37 2ee9 40af 42a9 78e7 6b5b f1b9 e1af
00000050: 7853 b350 d75c 12bc 451d f643 b736 9b71
00000060: d549 06c1 e650 50c5 a776 532b e361 fad5
00000070: c4a4 bea8 fdde 7a49 2dd9 e18b 4404 cc2d
00000080: 1773 ed47 ab9d de5d c84f f9b8 4ea0 4924
00000090: dc77 bf4d bc37 a4e4 5235 cf21 07e3 d96a
000000a0: 2b3b 4de8 2505 1db8 ae11 ca6b a7b4 d024
000000b0: 0d13 9ab1 e649 56eb 4815 db9c 28a5 9d28
000000c0: c2eb b6b6 7ada ae18 32b9 6671 1230 4fe8
000000d0: d9ef 0ec4 f8f2 9c93 a100 1b02 1e6d f1dc
000000e0: faad c02e 7ff6 b475 e13c 3edc da3e b233
000000f0: 210c 5985 4234 f3d9 45d6 29da 4c66 2a35

model/model_19/sequential_4/conv2d_4/Conv2D i1 [24, 1, 1, 256] scale=0.001374206 zero_point=0
-0.0920718 -0.012367854 0.070084505 0.10443966 -0.08794919 -0.075581335 0.068710305 0.11955593
-0.07145871 0.06458768 -0.017864678 0.037103564 -0.042600386 -0.005496824 0.096194424 -0.08657498
0.049471416 0.108562276 -0.0673361 0.11955593 0.13192378 -0.026109915 0.010993648 -0.05634245
0.026109915 -0.01374206 0.12642695 -0.005496824 0.010993648 -0.082452364 0.049471416 -0.008245236
-0.001374206 -0.023361502 -0.035729356 -0.108562276 0.030232534 -0.05909086 -0.032980945 0.082452364
-0.10443966 -0.070084505 0.010993648 -0.12367854 0.035729356 -0.089323394 0.07970395 0.09344601
-0.043974593 -0.0920718 0.053594034 0.037103564 0.07832974 0.08794919 -0.09482022 0.012367854
0.08657498 0.122304335 0.05634245 -0.06458768 -0.12505275 -0.023361502 -0.01374206 0.11955593
0.09344601 0.005496824 -0.06183927 -0.020613091 0.120930135 0.07832974 -0.053594034 -0.03847777
0.09344601 0.08794919 -0.031606738 -0.032980945 0.10306545 0.14291742 -0.050845623 0.13879481
-0.009619443 0.06596189 0.096194424 -0.02748412 -0.053594034 -0.004122618 0.023361502 -0.008245236
0.089323394 -0.108562276 0.0453488 0.10718807 0.026109915 0.050845623 -0.08520077 -0.0920718
0.1360464 -0.016490472 0.08520077 0.11818172 0.042600386 -0.06458768 0.037103564 0.053594034
0.0920718 0.115433306 -0.08794919 -0.09482022 -0.13329798 0.00687103 0.06458768 0.10718807
0.030232534 -0.005496824 0.0906976 0.057716653 0.089323394 -0.11955593 -0.101691246 0.05221983
-0.03847777 -0.07970395 0.07970395 0.016490472 -0.057716653 0.14978845 0.021987297 -0.050845623
-0.08657498 -0.01374206 0.13054958 0.16215631 0.060465068 0.048097212 -0.05496824 0.060465068
0.042600386 0.108562276 -0.14016901 -0.12367854 0.11131069 0.028858326 -0.001374206 0.060465068
-0.012367854 0.032980945 0.101691246 0.11680751 0.08794919 -0.05221983 0.075581335 0.13329798
0.010993648 -0.053594034 -0.050845623 -0.108562276 0.08520077 -0.024735708 0.034355152 0.075581335
0.09344601 -0.07970395 0.026109915 0.02748412 -0.043974593 0.10718807 0.12642695 -0.070084505
0.12367854 0.14016901 0.05221983 -0.0673361 0.101691246 0.13329798 0.060465068 -0.01374206
0.063213475 0.01374206 -0.039851975 0.06596189 0.032980945 0.06458768 -0.020613091 0.08520077
-0.023361502 0.09894283 0.15116267 0.046723004 -0.002748412 0.015116267 0.075581335 -0.032980945
0.13192378 0.14429164 0.13192378 -0.050845623 0.10993648 0.11131069 -0.09756863 0.028858326
0.035729356 -0.09894283 -0.063213475 -0.08107816 0.096194424 -0.043974593 -0.02748412 -0.017864678
-0.14429164 -0.101691246 -0.037103564 0.01374206 -0.06596189 -0.05496824 0.10443966 -0.06458768
-0.05221983 -0.041226182 -0.08382657 0.048097212 0.09344601 -0.024735708 -0.00687103 -0.070084505
0.05909086 0.12505275 0.15391108 -0.028858326 -0.08520077 0.13329798 0.019238885 -0.075581335
0.010993648 -0.019238885 0.042600386 0.09756863 0.13742061 -0.11818172 0.023361502 -0.0906976
0.07145871 0.096194424 0.082452364 0.02748412 0.10031704 -0.0920718 -0.12917536 -0.05634245
0.09344601 -0.060465068 -0.023361502 0.09344601 -0.034355152 0.035729356 0.13192378 0.001374206
00000000: bdf7 334c c0c9 3257 cc2f f31b e1fc 46c1
00000010: 244f cf57 60ed 08d7 13f6 5cfc 08c4 24fa
00000020: ffef e6b1 16d5 e83c b4cd 08a6 1abf 3a44
00000030: e0bd 271b 3940 bb09 3f59 29d1 a5ef f657
00000040: 4404 d3f1 5839 d9e4 4440 e9e8 4b68 db65
00000050: f930 46ec d9fd 11fa 41b1 214e 1325 c2bd
00000060: 63f4 3e56 1fd1 1b27 4354 c0bb 9f05 2f4e
00000070: 16fc 422a 41a9 b626 e4c6 3a0c d66d 10db
00000080: c1f6 5f76 2c23 d82c 1f4f 9aa6 5115 ff2c
00000090: f718 4a55 40da 3761 08d9 dbb1 3eee 1937
000000a0: 44c6 1314 e04e 5ccd 5a66 26cf 4a61 2cf6
000000b0: 2e0a e330 182f f13e ef48 6e22 fe0b 37e8
000000c0: 6069 60db 5051 b915 1ab8 d2c5 46e0 ecf3
000000d0: 97b6 e50a d0d8 4cd1 dae2 c323 44ee fbcd
000000e0: 2b5b 70eb c261 0ec9 08f2 1f47 64aa 11be
000000f0: 3446 3c14 49bd a2d7 44d4 ef44 e71a 6001

model/model_19/sequential_4/batch_normalization_4/FusedBatchNormV3;model/model_19/sequential_4/depthwise_conv2d_4/depthwise i1 [1, 3, 3, 256] scale=0.026105937 zero_point=0
0.2871653 -0.078317806 -0.10442375 0.4960128 1.3052968 1.5141443 -0.6787543 -2.1667926
1.4619324 0.93981373 0.39158905 -0.052211873 0.417695 -0.60043657 0.9137078 1.7752037
-0.2871653 0.10442375 -0.31327122 -0.39158905 -0.4960128 1.0442375 -0.7309662 -0.052211873
-1.2791909 0.3654831 0.88760185 -0.9659197 0.2871653 -0.10442375 0.44380093 -0.83539
-0.13052969 0.6526484 -0.6526484 -0.417695 -0.417695 1.0181315 -1.2530849 1.1486613
0.26105937 0.23495343 -0.9659197 -0.10442375 0.15663561 0.5482247 -0.52211875 -0.46990687
0.23495343 1.4619324 0.2871653 -0.18274155 -0.33937716 -1.7229918 1.7490977 -0.2088475
0.4960128 -0.7831781 0.46990687 0.5482247 1.2791909 -0.2871653 0.62654245 0.39158905
1.2008731 0.078317806 0.83539 -0.026105937 -0.33937716 -0.26105937 -1.8013096 1.2791909
0.3654831 0.0 0.75707215 0.39158905 0.31327122 0.9920256 -0.6787543 0.60043657
-1.2008731 -0.31327122 0.15663561 -0.52211875 -0.39158905 0.6526484 -1.8013096 -0.31327122
1.2791909 -0.6787543 1.226979 -2.4278522 0.3654831 -1.0442375 0.7831781 -0.8614959
-0.10442375 1.3052968 1.4619324 0.44380093 0.18274155 -0.8614959 1.0964494 -0.8614959
0.5482247 0.0 0.417695 -2.2712164 1.2008731 -1.0181315 0.18274155 -1.226979
-0.70486027 -0.23495343 0.078317806 -1.0703434 -1.5924622 0.6787543 1.9840512 -0.26105937
1.2530849 0.88760185 0.9137078 -0.33937716 0.88760185 -1.8796275 -0.83539 0.33937716
0.5743306 1.2530849 -0.2088475 -0.39158905 -0.3654831 0.39158905 -0.80928403 -0.15663561
-0.33937716 0.80928403 1.2530849 0.31327122 -1.67078 -0.23495343 1.3575087 0.33937716
0.3654831 -1.1747671 0.6526484 -0.33937716 0.2088475 -0.70486027 0.9920256 -0.052211873
0.9920256 -0.26105937 -0.10442375 0.417695 -0.9920256 0.39158905 -0.6526484 -1.3575087
0.18274155 -1.0442375 -0.8614959 0.7309662 -0.15663561 -0.83539 -1.0442375 -0.60043657
0.2871653 -0.4960128 0.46990687 0.23495343 0.9659197 -1.0442375 0.62654245 0.52211875
-0.078317806 0.9920256 -1.1225553 -0.33937716 0.23495343 0.52211875 -0.6787543 -0.46990687
0.75707215 0.44380093 0.0 0.417695 1.0442375 -0.3654831 0.62654245 0.83539
-0.13052969 -1.8013096 0.2088475 0.18274155 0.23495343 -0.6526484 -0.93981373 -0.18274155
-0.33937716 0.46990687 -0.3654831 -0.70486027 -1.7752037 1.1747671 1.4097205 0.31327122
0.7309662 1.0442375 -0.70486027 0.46990687 -0.26105937 0.13052969 0.83539 0.15663561
-0.7831781 0.13052969 -1.1747671 -0.31327122 -1.1747671 0.417695 1.7752037 0.5482247
0.88760185 -1.3314028 -1.5141443 0.8614959 0.2871653 0.9920256 -0.2871653 -0.2088475
0.88760185 -0.2088475 1.6185681 -0.46990687 0.5482247 1.0442375 0.13052969 1.0964494
1.1225553 1.4358265 1.226979 -1.3836147 -0.18274155 -0.2871653 0.52211875 0.5743306
-0.52211875 0.7309662 -0.18274155 0.417695 -0.7831781 -0.052211873 -0.7309662 -0.83539
00000000: 0bfd fc13 323a e6ad 3824 0ffe 10e9 2344
00000010: f504 f4f1 ed28 e4fe cf0e 22db 0bfc 11e0
00000020: fb19 e7f0 f027 d02c 0a09 dbfc 0615 ecee
00000030: 0938 0bf9 f3be 43f8 13e2 1215 31f5 180f
00000040: 2e03 20ff f3f6 bb31 0e00 1d0f 0c26 e617
00000050: d2f4 06ec f119 bbf4 31e6 2fa3 0ed8 1edf
00000060: fc32 3811 07df 2adf 1500 10a9 2ed9 07d1
00000070: e5f7 03d7 c31a 4cf6 3022 23f3 22b8 e00d
00000080: 1630 f8f1 f20f e1fa f31f 300c c0f7 340d
00000090: 0ed3 19f3 08e5 26fe 26f6 fc10 da0f e7cc
000000a0: 07d8 df1c fae0 d8e9 0bed 1209 25d8 1814
000000b0: fd26 d5f3 0914 e6ee 1d11 0010 28f2 1820
000000c0: fbbb 0807 09e7 dcf9 f312 f2e5 bc2d 360c
000000d0: 1c28 e512 f605 2006 e205 d3f4 d310 4415
000000e0: 22cd c621 0b26 f5f8 22f8 3eee 1528 052a
000000f0: 2b37 2fcb f9f5 1416 ec1c f910 e2fe e4e0

model/model_19/sequential_3/conv2d_3/Conv2D i1 [24, 1, 1, 256] scale=0.0017000949 zero_point=0
0.0 0.03910218 0.042502373 -0.030601708 0.11390636 0.011900664 -0.0068003796 -0.12920721
-0.035701994 -0.07990446 0.14620817 -0.07310408 -0.08330465 -0.020401139 -0.05780323 0.010200569
-0.04590256 -0.1326074 -0.018701043 0.022101235 0.07990446 -0.05780323 0.068003796 -0.07990446
-0.07140399 -0.07650427 0.056103133 -0.061203416 -0.10200569 -0.10710598 -0.047602657 -0.08330465
0.06290351 -0.07820436 0.08330465 0.0663037 -0.025501423 0.08670484 0.10880607 0.07990446
0.068003796 0.047602657 0.098605506 -0.05270294 0.0034001898 -0.020401139 -0.06290351 0.103705786
-0.07650427 -0.010200569 0.049302753 0.08330465 0.09350522 0.10540588 -0.08500475 0.08670484
0.017000949 -0.037402086 -0.0068003796 -0.0663037 -0.027201518 -0.06290351 -0.0051002847 -0.018701043
0.08840494 -0.061203416 -0.035701994 -0.018701043 -0.017000949 -0.13770768 -0.05780323 0.07310408
-0.07820436 0.0068003796 0.022101235 -0.0085004745 -0.017000949 -0.06970389 0.020401139 -0.112206265
0.047602657 0.030601708 -0.09690541 0.07310408 -0.08840494 -0.040802278 -0.081604555 -0.0017000949
0.0068003796 -0.028901614 0.0051002847 -0.08500475 0.051002845 0.07650427 -0.14790826 -0.027201518
0.117306545 0.11900664 -0.056103133 -0.14450806 0.05270294 0.12750712 -0.0017000949 0.09180512
-0.034001898 -0.04590256 0.09690541 -0.042502373 -0.0034001898 0.09690541 -0.07310408 -0.061203416
0.013600759 -0.027201518 0.013600759 0.010200569 0.032301802 0.010200569 -0.025501423 0.0034001898
0.05270294 0.034001898 -0.010200569 0.035701994 0.049302753 0.025501423 0.117306545 0.023801329
0.035701994 0.027201518 -0.12410693 0.020401139 0.022101235 0.095205314 -0.04420247 0.028901614
-0.028901614 -0.035701994 0.023801329 0.018701043 -0.010200569 0.07650427 -0.042502373 -0.028901614
-0.0085004745 0.035701994 0.09010503 0.042502373 -0.022101235 -0.05950332 0.017000949 -0.0085004745
-0.095205314 -0.07140399 -0.11560646 0.09180512 -0.018701043 0.011900664 -0.051002845 -0.07140399
-0.0663037 -0.010200569 -0.042502373 -0.034001898 -0.051002845 -0.056103133 -0.0085004745 -0.032301802
-0.0034001898 0.010200569 0.06290351 0.0017000949 -0.10880607 0.049302753 -0.015300854 0.11390636
0.051002845 0.06290351 0.030601708 -0.1343075 -0.061203416 0.0068003796 0.0 -0.042502373
0.037402086 0.0068003796 -0.028901614 -0.011900664 -0.015300854 -0.03910218 0.06290351 0.064603604
-0.08330465 0.09690541 0.018701043 0.12070674 -0.103705786 0.027201518 -0.04420247 -0.010200569
0.061203416 0.103705786 -0.0017000949 0.022101235 -0.0068003796 -0.08840494 0.042502373 -0.028901614
0.027201518 -0.0034001898 0.061203416 -0.0017000949 0.020401139 0.05950332 0.028901614 -0.07820436
-0.11900664 -0.064603604 0.0663037 0.1003056 -0.023801329 0.08500475 -0.05270294 -0.12410693
-0.07310408 -0.064603604 -0.020401139 0.04590256 -0.037402086 0.10710598 0.027201518 0.08330465
0.09180512 -0.040802278 0.064603604 -0.15640873 0.027201518 0.0034001898 -0.034001898 0.030601708
0.0068003796 0.010200569 -0.030601708 0.030601708 -0.032301802 -0.11560646 -0.042502373 -0.10200569
0.09010503 0.0017000949 0.07650427 0.034001898 0.061203416 0.04590256 -0.054403037 0.025501423
00000000: 0017 19ee 4307 fcb4 ebd1 56d5 cff4 de06
00000010: e5b2 f50d 2fde 28d1 d6d3 21dc c4c1 e4cf
00000020: 25d2 3127 f133 402f 281c 3ae1 02f4 db3d
00000030: d3fa 1d31 373e ce33 0aea fcd9 f0db fdf5
00000040: 34dc ebf5 f6af de2b d204 0dfb f6d7 0cbe
00000050: 1c12 c72b cce8 d0ff 04ef 03ce 1e2d a9f0
00000060: 4546 dfab 1f4b ff36 ece5 39e7 fe39 d5dc
00000070: 08f0 0806 1306 f102 1f14 fa15 1d0f 450e
00000080: 1510 b70c 0d38 e611 efeb 0e0b fa2d e7ef
00000090: fb15 3519 f3dd 0afb c8d6 bc36 f507 e2d6
000000a0: d9fa e7ec e2df fbed fe06 2501 c01d f743
000000b0: 1e25 12b1 dc04 00e7 1604 eff9 f7e9 2526
000000c0: cf39 0b47 c310 e6fa 243d ff0d fccc 19ef
000000d0: 10fe 24ff 0c23 11d2 bada 273b f232 e1b7
000000e0: d5da f41b ea3f 1031 36e8 26a4 1002 ec12
000000f0: 0406 ee12 edbc e7c4 3501 2d14 241b e00f

model/model_19/sequential_3/batch_normalization_3/FusedBatchNormV3;model/model_19/sequential_3/depthwise_conv2d_3/depthwise;model/model_19/sequential_4/depthwise_conv2d_4/depthwise i1 [1, 3, 3, 256] scale=0.0155546 zero_point=0
0.233319 0.2644282 0.544411 -0.093327604 -0.7932846 0.6532932 0.0155546 -0.2799828
0.31109202 0.63773865 -0.9954944 -0.0311092 -0.37331042 -0.6844024 -0.2955374 -1.088822
0.2955374 -0.45108342 -0.6688478 0.1088822 0.9488306 -0.38886502 0.1399914 -1.2288134
0.4355288 0.077773005 -0.60662943 0.1088822 0.093327604 0.74662083 -1.5554601 0.233319
0.544411 -0.7932846 -0.38886502 -0.1244368 1.2910318 -0.8399484 0.63773865 0.0622184
0.2644282 0.046663802 0.3577558 -0.3422012 0.233319 0.1711006 0.4044196 -0.5755202
0.37331042 0.2799828 -1.0266036 -0.046663802 0.15554601 -0.933276 -0.4821926 0.4355288
-1.0732675 -0.2644282 0.2488736 0.38886502 -0.077773005 -0.2955374 -0.7155116 0.3266466
0.093327604 -0.2022098 0.0155546 -0.7155116 0.76217544 0.0622184 0.699957 0.2955374
0.2488736 -0.5599656 -0.1399914 -0.31109202 0.1244368 -0.9488306 0.31109202 -0.38886502
0.2177644 0.5599656 -0.8399484 -0.8399484 -0.8088392 0.3577558 0.37331042 1.1821496
-0.1244368 1.2599226 0.933276 0.1399914 -0.0622184 -0.5599656 0.6844024 0.45108342
0.74662083 -1.0577128 -0.4199742 -0.1244368 -1.1510404 1.3532503 0.63773865 -0.7310662
-0.18665521 -0.2177644 -0.9954944 -0.15554601 -1.166595 -0.15554601 -0.1244368 1.1821496
-0.2177644 0.2177644 -0.0622184 -0.4977472 -0.5755202 0.6532932 0.0155546 0.2177644
-0.90216684 -0.3577558 -0.093327604 -0.62218404 0.76217544 -0.2644282 -0.2488736 -0.0622184
0.18665521 -0.45108342 -0.45108342 -1.0577128 0.15554601 -0.4821926 -0.18665521 0.1244368
-0.0155546 0.1244368 -1.0266036 0.6844024 0.1088822 0.933276 -0.077773005 -0.8399484
0.4355288 -0.45108342 0.4199742 -0.5133018 -0.5133018 -0.4044196 0.15554601 0.1244368
0.37331042 -0.76217544 0.933276 0.046663802 -0.544411 0.2799828 -0.466638 0.233319
-0.0155546 0.0622184 -0.1244368 -0.4199742 -0.046663802 0.2177644 0.0 -0.4821926
-0.093327604 -0.2177644 0.18665521 -0.093327604 0.3422012 -1.2288134 0.5599656 0.7155116
-0.0622184 -1.5710146 0.38886502 -0.9488306 -0.1088822 -0.2644282 -1.5087962 -0.5133018
0.2022098 -0.4044196 -0.1088822 0.2177644 -0.77773005 -0.855503 -0.8088392 -0.37331042
-0.093327604 -0.046663802 -1.3532503 0.093327604 0.4199742 -0.4821926 -0.4821926 0.1088822
0.31109202 -0.4199742 0.37331042 -0.3422012 -0.60662943 -0.0155546 -0.046663802 0.7310662
-1.0266036 0.046663802 -0.4199742 0.60662943 0.2644282 -0.6532932 -0.2644282 -0.88661224
-1.011049 -0.3577558 0.18665521 -0.74662083 -0.544411 -1.0421582 -0.1088822 0.2488736
0.0311092 0.4355288 -0.699957 -0.2022098 0.15554601 -0.62218404 0.5288564 -0.093327604
0.699957 -0.8399484 -0.0155546 -1.4932417 -0.2488736 -0.233319 0.1088822 0.15554601
-0.093327604 -0.1399914 -0.0622184 -0.3422012 -0.8243938 1.0577128 0.4977472 0.5133018
0.8399484 -1.6332331 -1.0266036 0.233319 0.6844024 0.2177644 -0.9799398 -0.4199742
00000000: 0f11 23fa cd2a 01ee 1429 c0fe e8d4 edba
00000010: 13e3 d507 3de7 09b1 1c05 d907 0630 9c0f
00000020: 23cd e7f8 53ca 2904 1103 17ea 0f0b 1adb
00000030: 1812 befd 0ac4 e11c bbef 1019 fbed d215
00000040: 06f3 01d2 3104 2d13 10dc f7ec 08c3 14e7
00000050: 0e24 caca cc17 184c f851 3c09 fcdc 2c1d
00000060: 30bc e5f8 b657 29d1 f4f2 c0f6 b5f6 f84c
00000070: f20e fce0 db2a 010e c6e9 fad8 31ef f0fc
00000080: 0ce3 e3bc 0ae1 f408 ff08 be2c 073c fbca
00000090: 1ce3 1bdf dfe6 0a08 18cf 3c03 dd12 e20f
000000a0: ff04 f8e5 fd0e 00e1 faf2 0cfa 16b1 242e
000000b0: fc9b 19c3 f9ef 9fdf 0de6 f90e cec9 cce8
000000c0: fafd a906 1be1 e107 14e5 18ea d9ff fd2f
000000d0: be03 e527 11d6 efc7 bfe9 0cd0 ddbd f910
000000e0: 021c d3f3 0ad8 22fa 2dca ffa0 f0f1 070a
000000f0: faf7 fcea cb44 2021 3697 be0f 2c0e c1e5

model/model_19/sequential_2/conv2d_2/Conv2D i1 [24, 1, 1, 512] scale=0.0013147783 zero_point=0
-0.03155468 -0.03286946 -0.04075813 -0.043387685 0.05785025 -0.030239902 0.06836847 -0.022351231
0.021036454 -0.04075813 0.0013147783 -0.05522069 0.010518227 0.003944335 -0.06573892 0.003944335
-0.1157005 0.042072907 0.019721676 -0.043387685 0.028925125 0.018406898 -0.08809015 0.0
-0.027610345 0.0013147783 -0.04075813 0.028925125 -0.0013147783 0.034184236 -0.038128573 -0.011833005
0.0131477835 0.036813796 0.038128573 0.074942365 -0.035499014 -0.05522069 0.0013147783 0.030239902
0.024980789 0.085460596 -0.0013147783 0.028925125 0.026295567 0.06442414 -0.00788867 -0.043387685
0.0065738917 -0.021036454 0.059165027 -0.028925125 0.026295567 0.01577734 0.03944335 -0.014462562
-0.028925125 0.04075813 0.0788867 0.0065738917 -0.0788867 0.0026295567 -0.019721676 0.03155468
-0.02366601 -0.06442414 -0.011833005 0.019721676 0.0670537 0.04075813 0.04733202 -0.0065738917
-0.04601724 -0.05785025 0.0131477835 0.01577734 -0.003944335 0.0486468 0.04601724 -0.049961578
-0.003944335 -0.099923156 0.060479805 0.017092118 0.010518227 0.011833005 0.003944335 0.069683254
-0.04075813 0.0052591134 -0.03155468 0.03286946 0.017092118 0.044702463 0.036813796 0.06573892
0.027610345 -0.035499014 -0.0131477835 -0.019721676 -0.017092118 0.038128573 -0.059165027 -0.06442414
0.027610345 -0.019721676 -0.014462562 0.0131477835 0.07099803 0.056535468 0.0131477835 0.017092118
0.03155468 0.0013147783 0.059165027 0.024980789 0.0052591134 -0.0788867 0.019721676 0.056535468
-0.019721676 0.056535468 -0.03944335 -0.00788867 0.035499014 0.03155468 0.0052591134 -0.009203449
-0.1327926 -0.0788867 0.0131477835 0.024980789 0.014462562 -0.011833005 0.01577734 -0.017092118
-0.0670537 0.07362759 0.014462562 0.035499014 0.00788867 0.07757192 0.022351231 0.0
-0.05522069 0.08151626 -0.043387685 -0.0486468 0.035499014 0.0052591134 -0.028925125 0.04601724
-0.010518227 0.00788867 -0.06310936 -0.056535468 -0.022351231 -0.069683254 0.036813796 -0.02366601
0.009203449 0.07362759 0.035499014 0.049961578 0.085460596 0.042072907 -0.07757192 0.038128573
0.018406898 -0.010518227 -0.0065738917 0.0131477835 -0.030239902 0.017092118 -0.014462562 -0.02366601
-0.052591134 0.084145814 -0.030239902 -0.0052591134 -0.049961578 0.026295567 -0.028925125 0.0
-0.0026295567 -0.051276356 -0.014462562 -0.027610345 -0.06310936 -0.08151626 -0.060479805 0.024980789
-0.035499014 0.0 0.003944335 0.038128573 0.009203449 0.049961578 0.0131477835 -0.010518227
-0.034184236 0.043387685 -0.05785025 0.0 0.030239902 -0.0486468 0.05522069 0.01577734
-0.017092118 -0.019721676 0.030239902 -0.010518227 -0.0065738917 0.01577734 -0.060479805 -0.05522069
0.0065738917 -0.01577734 0.022351231 -0.06573892 0.018406898 -0.09466404 0.026295567 0.011833005
-0.07362759 -0.056535468 -0.02366601 0.027610345 0.019721676 -0.0052591134 -0.014462562 0.074942365
0.003944335 0.034184236 -0.019721676 0.0013147783 -0.04601724 0.0486468 -0.003944335 -0.034184236
0.014462562 -0.04733202 0.0065738917 -0.04075813 -0.038128573 0.0026295567 0.019721676 -0.009203449
-0.043387685 -0.03155468 0.00788867 0.024980789 0.06573892 0.024980789 0.0013147783 -0.010518227
00000000: e8e7 e1df 2ce9 34ef 10e1 01d6 0803 ce03
00000010: a820 0fdf 160e bd00 eb01 e116 ff1a e3f7
00000020: 0a1c 1d39 e5d6 0117 1341 ff16 1431 fadf
00000030: 05f0 2dea 140c 1ef5 ea1f 3c05 c402 f118
00000040: eecf f70f 331f 24fb ddd4 0a0c fd25 23da
00000050: fdb4 2e0d 0809 0335 e104 e819 0d22 1c32
00000060: 15e5 f6f1 f31d d3cf 15f1 f50a 362b 0a0d
00000070: 1801 2d13 04c4 0f2b f12b e2fa 1b18 04f9
00000080: 9bc4 0a13 0bf7 0cf3 cd38 0b1b 063b 1100
00000090: d63e dfdb 1b04 ea23 f806 d0d5 efcb 1cee
000000a0: 0738 1b26 4120 c51d 0ef8 fb0a e90d f5ee
000000b0: d840 e9fc da14 ea00 fed9 f5eb d0c2 d213
000000c0: e500 031d 0726 0af8 e621 d400 17db 2a0c
000000d0: f3f1 17f8 fb0c d2d6 05f4 11ce 0eb8 1409
000000e0: c8d5 ee15 0ffc f539 031a f101 dd25 fde6
000000f0: 0bdc 05e1 e302 0ff9 dfe8 0613 3213 01f8

model/model_19/sequential_2/batch_normalization_2/FusedBatchNormV3;model/model_19/sequential_2/depthwise_conv2d_2/depthwise i1 [1, 3, 3, 512] scale=0.011894416 zero_point=0
-0.16652182 -0.428199 0.16652182 -0.19031066 -1.2727026 -0.05947208 -0.5352487 -0.46388224
-0.0713665 -0.011894416 0.09515533 -0.5233543 -0.11894416 -0.047577664 0.16652182 0.285466
-0.23788832 -0.19031066 0.24978274 -0.30925483 -0.15462741 -1.1775472 0.72555935 -0.67798173
-0.011894416 -0.61850965 -0.9039756 0.2259939 -0.19031066 0.35683247 -0.142733 0.16652182
0.32114923 0.023788832 0.5233543 -0.13083857 0.3806213 0.08326091 -0.16652182 0.2973604
0.13083857 0.011894416 -0.047577664 -0.09515533 -0.8920812 -0.11894416 -0.33304363 -0.49956548
1.1180751 -0.8326091 0.09515533 -0.30925483 -0.13083857 0.3806213 0.39251572 -0.24978274
-0.7493482 0.03568325 -0.19031066 -0.5828264 -0.428199 -0.05947208 -0.047577664 -0.33304363
-0.34493807 -0.856398 -0.9277645 -0.60661525 0.33304363 -0.19031066 0.10704975 0.09515533
-0.3806213 0.3806213 0.142733 -0.09515533 -0.2973604 -0.60661525 -0.35683247 0.27357158
0.32114923 0.0713665 0.24978274 -0.19031066 -0.48767105 -0.142733 -0.33304363 -0.23788832
-0.03568325 -0.11894416 -0.2259939 -0.4519878 -0.33304363 -0.77313703 -0.03568325 -0.26167715
0.2140995 -0.41630456 0.34493807 0.16652182 -0.41630456 -0.856398 -0.8088203 -0.05947208
-0.61850965 -0.17841624 0.16652182 -0.71366495 -0.55903757 0.11894416 0.428199 -0.011894416
-0.570932 -0.64229846 -0.10704975 0.11894416 -0.047577664 0.428199 -0.10704975 0.10704975
-0.4519878 -0.40441015 -0.34493807 0.54714316 0.2973604 0.03568325 -0.60661525 -0.19031066
-0.09515533 0.55903757 0.047577664 -0.78503144 -0.41630456 0.05947208 0.34493807 -0.72555935
0.09515533 -0.047577664 -0.27357158 -0.0713665 -0.5947208 -0.17841624 -0.8682924 0.2973604
-0.17841624 -0.61850965 -0.03568325 0.011894416 -0.0713665 -0.047577664 -0.9515533 0.32114923
-0.16652182 -0.09515533 0.41630456 -0.23788832 -0.03568325 0.0 0.20220508 0.2140995
0.5233543 0.26167715 0.08326091 -0.142733 0.2140995 0.3687269 0.40441015 0.142733
0.0 -0.5114599 0.41630456 -0.20220508 0.03568325 -0.49956548 0.15462741 -0.15462741
-0.13083857 -0.63040406 0.7374538 -0.10704975 -0.7969259 0.023788832 0.20220508 0.2259939
0.11894416 -0.011894416 0.20220508 0.26167715 0.5114599 -0.5947208 -1.1299695 -0.32114923
-0.20220508 0.47577664 0.19031066 -0.11894416 0.30925483 0.09515533 -0.19031066 0.65419286
-0.24978274 0.17841624 0.64229846 0.0713665 -0.70177054 0.023788832 -0.5114599 -0.08326091
-0.142733 -1.0110253 0.63040406 0.4400934 -0.5352487 -0.46388224 0.17841624 0.0
0.03568325 -0.023788832 -0.32114923 -0.2140995 0.09515533 0.05947208 -0.7969259 -0.285466
0.27357158 -0.34493807 0.7374538 -0.39251572 -0.03568325 0.0 -0.27357158 -0.48767105
0.54714316 -0.08326091 -0.27357158 -0.77313703 -0.9277645 0.47577664 -0.78503144 0.2140995
-0.11894416 -0.011894416 -0.11894416 0.5828264 0.047577664 -0.26167715 0.011894416 0.4400934
-0.32114923 -0.13083857 -0.48767105 -0.03568325 0.10704975 -0.10704975 -0.9753421 -0.5233543
00000000: f2dc 0ef0 95fb d3d9 faff 08d4 f6fc 0e18
00000010: ecf0 15e6 f39d 3dc7 ffcc b413 f01e f40e
00000020: 1b02 2cf5 2007 f219 0b01 fcf8 b5f6 e4d6
00000030: 5eba 08e6 f520 21eb c103 f0cf dcfb fce4
00000040: e3b8 b2cd 1cf0 0908 e020 0cf8 e7cd e217
00000050: 1b06 15f0 d7f4 e4ec fdf6 edda e4bf fdea
00000060: 12dd 1d0e ddb8 bcfb ccf1 0ec4 d10a 24ff
00000070: d0ca f70a fc24 f709 dade e32e 1903 cdf0
00000080: f82f 04be dd05 1dc3 08fc e9fa cef1 b719
00000090: f1cc fd01 fafc b01b f2f8 23ec fd00 1112
000000a0: 2c16 07f4 121f 220c 00d5 23ef 03d6 0df3
000000b0: f5cb 3ef7 bd02 1113 0aff 1116 2bce a1e5
000000c0: ef28 10f6 1a08 f037 eb0f 3606 c502 d5f9
000000d0: f4ab 3525 d3d9 0f00 03fe e5ee 0805 bde8
000000e0: 17e3 3edf fd00 e9d7 2ef9 e9bf b228 be12
000000f0: f6ff f631 04ea 0125 e5f5 d7fd 09f7 aed4

model/model_19/sequential_1/conv2d_1/Conv2D i1 [24, 1, 1, 240] scale=0.0018033123 zero_point=0
-0.10098549 0.01622981 0.12803517 0.068525866 0.03065631 0.08475568 0.055902682 0.057705995
-0.09377224 0.041476183 0.041476183 0.07032918 -0.03245962 -0.005409937 -0.019836435 -0.0036066247
0.10639543 -0.018033123 0.0036066247 -0.045082808 -0.03967287 -0.01622981 -0.08655899 0.090165615
-0.03245962 -0.0072132493 0.1172153 -0.0072132493 0.06672256 0.03967287 0.014426499 0.1172153
0.07032918 -0.102788806 0.01622981 -0.021639748 0.052296057 -0.012623186 -0.075739115 0.012623186
0.097378865 -0.082952365 0.027049685 -0.07754243 -0.075739115 0.10639543 -0.050492745 0.019836435
0.09196893 -0.059509307 0.09377224 0.059509307 0.07393581 -0.025246372 0.04688612 -0.005409937
-0.045082808 -0.019836435 0.09377224 -0.021639748 -0.13705173 -0.021639748 0.090165615 0.021639748
0.010819874 -0.048689432 -0.06672256 -0.034262933 0.034262933 -0.027049685 0.041476183 -0.045082808
-0.095575556 -0.010819874 -0.021639748 0.0 -0.111805364 0.10639543 0.012623186 0.09196893
0.06311593 -0.16770805 -0.119018614 0.041476183 0.048689432 -0.03065631 0.014426499 -0.0036066247
-0.097378865 0.06491924 -0.005409937 -0.07393581 0.057705995 -0.11541199 0.018033123 -0.06311593
0.03967287 -0.09196893 0.028852997 0.08655899 -0.08114906 0.050492745 0.037869558 0.04688612
0.06131262 -0.014426499 0.04688612 -0.07213249 0.055902682 -0.057705995 -0.04688612 -0.12262524
-0.045082808 -0.090165615 0.019836435 -0.041476183 0.06672256 0.014426499 0.110002056 0.08475568
0.036066245 -0.11360868 0.057705995 -0.12082192 0.09196893 0.01622981 -0.14426498 0.08114906
-0.009016561 -0.028852997 -0.07032918 -0.0018033123 0.027049685 -0.09196893 0.13705173 -0.059509307
-0.12623186 0.014426499 -0.034262933 -0.036066245 -0.10098549 -0.097378865 0.1172153 -0.110002056
0.06491924 -0.08114906 0.0072132493 -0.07032918 -0.12983848 0.14426498 0.0 -0.08114906
-0.12082192 -0.07934574 0.06311593 0.09196893 -0.06131262 -0.03065631 -0.0018033123 0.06491924
0.082952365 -0.02344306 0.005409937 0.09196893 0.059509307 0.021639748 0.027049685 0.12442855
0.102788806 0.068525866 -0.052296057 0.082952365 -0.02344306 -0.119018614 -0.11541199 0.019836435
-0.03065631 0.07213249 0.0 -0.06311593 -0.055902682 -0.025246372 0.050492745 -0.005409937
0.12262524 0.090165615 -0.08655899 0.10098549 -0.104592115 0.018033123 -0.0018033123 -0.036066245
0.08114906 -0.04688612 0.010819874 0.045082808 -0.08114906 -0.027049685 0.050492745 0.036066245
-0.059509307 0.06491924 0.06311593 -0.06491924 -0.07754243 -0.10639543 0.13524842 -0.025246372
0.04688612 0.02344306 -0.111805364 0.06131262 -0.0036066247 -0.0072132493 0.12262524 0.02344306
0.025246372 0.075739115 0.111805364 0.07393581 -0.104592115 -0.014426499 -0.009016561 -0.06311593
-0.01622981 -0.11541199 0.06491924 -0.09377224 0.014426499 0.075739115 -0.041476183 0.052296057
-0.027049685 0.048689432 0.02344306 -0.06131262 -0.09196893 0.037869558 -0.043279495 -0.08655899
0.03245962 0.06672256 0.0036066247 0.048689432 -0.025246372 0.0072132493 0.041476183 0.034262933
-0.057705995 -0.036066245 0.0 0.090165615 -0.034262933 -0.097378865 -0.018033123 -0.09377224
00000000: c809 4726 112f 1f20 cc17 1727 eefd f5fe
00000010: 3bf6 02e7 eaf7 d032 eefc 41fc 2516 0841
00000020: 27c7 09f4 1df9 d607 36d2 0fd5 d63b e40b
00000030: 33df 3421 29f2 1afd e7f5 34f4 b4f4 320c
00000040: 06e5 dbed 13f1 17e7 cbfa f400 c23b 0733
00000050: 23a3 be17 1bef 08fe ca24 fdd7 20c0 0add
00000060: 16cd 1030 d31c 151a 22f8 1ad8 1fe0 e6bc
00000070: e7ce 0be9 2508 3d2f 14c1 20bd 3309 b02d
00000080: fbf0 d9ff 0fcd 4cdf ba08 edec c8ca 41c3
00000090: 24d3 04d9 b850 00d3 bdd4 2333 deef ff24
000000a0: 2ef3 0333 210c 0f45 3926 e32e f3be c00b
000000b0: ef28 00dd e1f2 1cfd 4432 d038 c60a ffec
000000c0: 2de6 0619 d3f1 1c14 df24 23dc d5c5 4bf2
000000d0: 1a0d c222 fefc 440d 0e2a 3e29 c6f8 fbdd
000000e0: f7c0 24cc 082a e91d f11b 0dde cd15 e8d0
000000f0: 1225 021b f204 1713 e0ec 0032 edca f6cc

model/model_19/sequential_1/re_lu_33/Relu6;model/model_19/sequential_1/batch_normalization_1/FusedBatchNormV3;model/model_19/sequential/depthwise_conv2d/depthwise;model/model_19/sequential_1/depthwise_conv2d_1/depthwise i1 [1, 3, 3, 240] scale=0.002385835 zero_point=0
0.02385835 0.085890055 -0.11213424 0.09066173 0.085890055 0.026244184 -0.03817336 0.057260036
-0.03340169 0.08111839 -0.07873255 -0.14076427 -0.14076427 -0.1837093 -0.07634672 -0.09066173
-0.01908668 -0.02385835 -0.21472514 0.02385835 0.03817336 -0.031015854 -0.050102532 0.0071575046
0.088275895 -0.22188264 -0.014315009 0.021472514 0.042945027 0.11690591 -0.021472514 -0.014315009
0.040559195 -0.02385835 -0.10736257 -0.12644926 0.045330863 -0.1980243 -0.16939428 0.104976736
-0.14792177 0.054874204 0.08350422 -0.014315009 -0.10974841 0.06203171 0.071575046 0.028630018
0.073960885 -0.12883508 0.035787523 0.045330863 -0.1025909 0.11690591 0.0477167 0.06441754
-0.014315009 0.13837843 -0.042945027 -0.059645873 0.06680338 0.06680338 -0.1503076 0.0071575046
-0.042945027 -0.011929175 0.07634672 0.1025909 -0.12406342 -0.059645873 0.031015854 -0.15269344
-0.011929175 0.031015854 -0.002385835 0.06441754 0.050102532 -0.06918921 -0.040559195 0.021472514
-0.10974841 -0.01908668 -0.00477167 -0.07873255 0.002385835 -0.035787523 0.021472514 0.014315009
-0.09304756 -0.028630018 0.12644926 0.026244184 -0.10974841 -0.00954334 0.06203171 0.073960885
0.040559195 0.085890055 0.028630018 0.07634672 0.0477167 -0.028630018 -0.085890055 0.073960885
-0.028630018 -0.057260036 -0.073960885 0.026244184 -0.01908668 0.03817336 0.12406342 0.08111839
0.06203171 -0.016700845 0.06203171 -0.031015854 -0.011929175 0.00477167 0.045330863 -0.03817336
-0.050102532 0.088275895 -0.00477167 0.059645873 -0.01908668 -0.11452007 -0.085890055 -0.09304756
0.06680338 0.026244184 -0.057260036 -0.06203171 -0.073960885 -0.028630018 -0.100205064 -0.11452007
-0.00477167 -0.011929175 -0.11452007 -0.031015854 -0.12406342 0.11690591 -0.045330863 -0.25528434
0.0954334 -0.11452007 -0.011929175 0.042945027 0.016700845 0.073960885 0.021472514 0.014315009
0.052488368 -0.085890055 0.011929175 -0.011929175 -0.08350422 -0.014315009 -0.050102532 -0.14076427
-0.11690591 0.026244184 0.0 0.0 -0.21472514 0.07634672 0.045330863 -0.054874204
0.050102532 0.00477167 0.014315009 0.0071575046 -0.13360676 0.042945027 -0.1503076 0.071575046
0.08350422 0.0477167 0.06680338 -0.08350422 0.042945027 -0.13360676 0.13360676 0.059645873
0.011929175 0.119291745 0.057260036 0.031015854 -0.07873255 0.026244184 0.09781923 0.03817336
-0.06441754 0.09304756 0.17655179 0.06918921 -0.15507928 0.10736257 -0.11690591 -0.10736257
-0.00954334 -0.08350422 0.088275895 -0.014315009 -0.06203171 -0.014315009 0.11213424 -0.08111839
0.057260036 -0.014315009 0.0 0.054874204 0.021472514 -0.06918921 -0.026244184 -0.16939428
-0.035787523 0.08350422 0.00477167 0.08111839 -0.021472514 -0.06918921 -0.23142599 -0.06203171
0.016700845 -0.00477167 0.054874204 -0.040559195 0.00954334 -0.071575046 0.03817336 -0.035787523
-0.042945027 0.016700845 0.035787523 0.031015854 0.040559195 0.06203171 0.00477167 -0.071575046
0.057260036 -0.045330863 -0.06918921 -0.014315009 -0.002385835 0.0954334 -0.00477167 0.17655179
0.052488368 -0.0071575046 -0.17655179 -0.01908668 -0.08350422 0.03340169 0.03817336 0.085890055
00000000: 0a24 d126 240b f018 f222 dfc5 c5b3 e0da
00000010: f8f6 a60a 10f3 eb03 25a3 fa09 1231 f7fa
00000020: 11f6 d3cb 13ad b92c c217 23fa d21a 1e0c
00000030: 1fca 0f13 d531 141b fa3a eee7 1c1c c103
00000040: eefb 202b cce7 0dc0 fb0d ff1b 15e3 ef09
00000050: d2f8 fedf 01f1 0906 d9f4 350b d2fc 1a1f
00000060: 1124 0c20 14f4 dc1f f4e8 e10b f810 3422
00000070: 1af9 1af3 fb02 13f0 eb25 fe19 f8d0 dcd9
00000080: 1c0b e8e6 e1f4 d6d0 fefb d0f3 cc31 ed95
00000090: 28d0 fb12 071f 0906 16dc 05fb ddfa ebc5
000000a0: cf0b 0000 a620 13e9 1502 0603 c812 c11e
000000b0: 2314 1cdd 12c8 3819 0532 180d df0b 2910
000000c0: e527 4a1d bf2d cfd3 fcdd 25fa e6fa 2fde
000000d0: 18fa 0017 09e3 f5b9 f123 0222 f7e3 9fe6
000000e0: 07fe 17ef 04e2 10f1 ee07 0f0d 111a 02e2
000000f0: 18ed e3fa ff28 fe4a 16fd b6f8 dd0e 1024

model/model_19/conv_extra_1_24/conv2d_6/Conv2D i1 [12, 1, 1, 240] scale=0.018471964 zero_point=0
0.27707946 -0.18471964 -0.18471964 0.0 0.24013552 -0.05541589 0.27707946 -0.49874303
-0.073887855 0.20319161 0.24013552 0.8312384 0.0 0.44332713 -0.33249533 1.1083179
-0.16624767 0.0 0.22166356 -0.05541589 -0.44332713 0.073887855 0.018471964 0.24013552
0.05541589 -0.073887855 -0.073887855 0.14777571 -0.16624767 -0.12930375 -0.11083178 0.073887855
0.0 0.38791123 -0.018471964 0.036943927 0.35096732 0.073887855 0.22166356 0.11083178
-0.12930375 -0.036943927 -0.018471964 0.0 0.05541589 0.073887855 0.09235982 0.09235982
-0.018471964 -0.11083178 -0.11083178 -0.14777571 0.12930375 -0.12930375 -0.05541589 0.036943927
0.036943927 -0.20319161 0.018471964 0.18471964 0.24013552 0.073887855 0.18471964 -0.073887855
0.27707946 0.12930375 0.24013552 0.018471964 0.14777571 0.09235982 0.073887855 0.11083178
0.16624767 -0.11083178 0.05541589 1.015958 0.18471964 0.88665426 -0.018471964 0.036943927
0.0 0.11083178 0.12930375 0.6095748 0.22166356 -0.036943927 -0.11083178 0.29555142
-0.05541589 0.81276643 -0.036943927 -0.036943927 -0.12930375 0.22166356 0.2586075 0.31402338
-0.073887855 0.16624767 0.036943927 -0.018471964 0.11083178 -0.12930375 0.5541589 0.20319161
0.09235982 -0.16624767 -0.20319161 0.12930375 0.05541589 0.018471964 -0.09235982 0.073887855
-0.18471964 0.6095748 0.12930375 -0.073887855 -0.16624767 -0.073887855 1.2006776 0.14777571
0.42485517 0.073887855 0.29555142 0.18471964 -0.11083178 0.0 0.40638322 0.7204066
-0.09235982 -0.11083178 1.1822057 0.18471964 0.14777571 0.16624767 0.14777571 0.11083178
0.12930375 0.517215 -0.05541589 0.11083178 0.18471964 0.05541589 0.036943927 0.0
-0.11083178 0.036943927 -0.517215 0.018471964 0.2586075 -0.12930375 0.11083178 -0.20319161
-0.073887855 0.14777571 -0.05541589 -0.05541589 0.14777571 -0.073887855 -0.11083178 0.31402338
-0.018471964 0.0 0.9420701 0.09235982 0.11083178 0.14777571 -0.05541589 -0.16624767
0.20319161 -0.11083178 0.036943927 0.35096732 0.0 -0.11083178 0.14777571 0.24013552
0.14777571 -0.12930375 0.16624767 0.35096732 0.09235982 0.036943927 0.036943927 -0.12930375
0.0 0.073887855 -0.05541589 -0.036943927 0.20319161 0.018471964 -0.036943927 0.11083178
0.59110284 0.53568697 0.35096732 0.12930375 -0.05541589 0.12930375 0.2586075 0.05541589
0.09235982 -0.036943927 -0.036943927 -0.073887855 -0.018471964 -0.073887855 0.12930375 -0.14777571
0.073887855 0.036943927 -0.09235982 0.27707946 -0.073887855 0.20319161 -0.05541589 -0.036943927
-0.018471964 0.24013552 -0.05541589 0.11083178 0.0 0.018471964 0.29555142 0.31402338
-0.14777571 -0.018471964 0.18471964 0.62804675 0.12930375 -0.036943927 0.09235982 0.09235982
-0.16624767 0.18471964 0.22166356 0.12930375 -0.40638322 0.20319161 0.12930375 0.073887855
-0.09235982 -0.16624767 0.11083178 -0.11083178 -0.2586075 -0.09235982 -0.036943927 0.42485517
-0.036943927 -0.49874303 -1.2191496 -0.27707946 -0.073887855 -0.20319161 0.12930375 -0.53568697
00000000: 0ff6 f600 0dfd 0fe5 fc0b 0d2d 0018 ee3c
00000010: f700 0cfd e804 010d 03fc fc08 f7f9 fa04
00000020: 0015 ff02 1304 0c06 f9fe ff00 0304 0505
00000030: fffa faf8 07f9 fd02 02f5 010a 0d04 0afc
00000040: 0f07 0d01 0805 0406 09fa 0337 0a30 ff02
00000050: 0006 0721 0cfe fa10 fd2c fefe f90c 0e11
00000060: fc09 02ff 06f9 1e0b 05f7 f507 0301 fb04
00000070: f621 07fc f7fc 4108 1704 100a fa00 1627
00000080: fbfa 400a 0809 0806 071c fd06 0a03 0200
00000090: fa02 e401 0ef9 06f5 fc08 fdfd 08fc fa11
000000a0: ff00 3305 0608 fdf7 0bfa 0213 00fa 080d
000000b0: 08f9 0913 0502 02f9 0004 fdfe 0b01 fe06
000000c0: 201d 1307 fd07 0e03 05fe fefc fffc 07f8
000000d0: 0402 fb0f fc0b fdfe ff0d fd06 0001 1011
000000e0: f8ff 0a22 07fe 0505 f70a 0c07 ea0b 0704
000000f0: fbf7 06fa f2fb fe17 fee5 bef1 fcf5 07e3
